model/keypoint_classifier/keypoint_classifier.tflite (tflite, 6720 bytes, 6 tensors)

sequential/dense/BiasAdd/ReadVariableOp f4 [20]
00000000: 421f 643e 674a 00bf af4f 4abf 3394 e1be
00000010: 50ef 063f d062 babe bf29 2fbe 4206 d9be
00000020: e2fb 1abe a8a3 c4be 35e9 42bf 2145 293f
00000030: 2152 cfbd a7d4 3fbf bcb8 1a3d 4a78 1fbf
00000040: 2ad0 b4be 3af6 123e 7537 0fbf 703e 073f
0.22277549 -0.5011353 -0.7902784 -0.4405838 0.5270891 -0.36403513 -0.17105769 -0.42387587
-0.15135148 -0.3840611 -0.76137096 0.6612111 -0.10123087 -0.74933857 0.037773833 -0.6229292
-0.35315067 0.1435174 -0.55943996 0.5282965

sequential/dense_2/BiasAdd/ReadVariableOp f4 [8]
00000000: e6a0 15bf b7df 05bf 1e0f 033e 0604 513e
00000010: fdf7 8b3d 6c82 ec3e c938 6f3e 40ed 833e
-0.58448637 -0.52294487 0.12798735 0.20411691 0.068344094 0.46193254 0.23361506 0.25766945

sequential/dense_1/BiasAdd/ReadVariableOp f4 [10]
00000000: b536 3f3f 36a6 8f3e 30d0 853e a657 803f
00000010: 4e77 4cbd e912 213f 3aa4 50be 3455 3e3e
00000020: 945a 813e 8bce 5c3f
0.7469285 0.28056496 0.26135397 1.0026748 -0.049918465 0.6291948 -0.20375147 0.1858719
0.25264418 0.8625266

sequential/dense/MatMul f4 [20, 42]
00000000: a01f bcbc 7a4d 84be 0fef 883d 424a 96be
00000010: dbda bc3e acb6 9cbe 713e 213f 1b57 94be
00000020: 5935 163f e164 9cbe b472 0abe f8f2 623d
00000030: 9fe1 46bd 2252 fd3d 34b9 aebe e2d2 063e
00000040: 12c2 e9be e26a 4e3e ebfd 18be 92e1 22bd
00000050: 63ac a5bb 4a8c 5ebd a1b5 e0bd ac03 863e
00000060: 3ed6 cbbc e4b5 923e 5b13 0dbd 1c5e 3fbe
00000070: ad7b ea3d 8ec3 f1bc 69a0 f2bd 2b2e e13e
00000080: 820d 47be 851b 223f 7c32 113e eec5 823e
00000090: c25c 643e e51c e13e 8c06 e3bd f453 0f3f
000000a0: 7464 8dbe 1929 853f da95 93be 5db5 1ebe
000000b0: ddf3 7bbd 826e a43e 0625 023e 39c1 9f3d
000000c0: 4156 b23d e0cd 3bbb e920 efbd b5de 8cbd
000000d0: c507 853e bbbc 2c3e 735d a6bd 3576 573e
000000e0: 26d5 6a3d f161 8e3e b045 dcbd 5db8 503e
000000f0: 3179 5b3d 5879 103e 279a a63d 346e 05be
00000100: 462a 99be 9187 9dbe 0571 e3be fa8e cebe
00000110: e3b3 02bc 97bc 1c3e 928f 0e3d 5e46 4cbe
00000120: 258c 883e 0878 74bf 78ab 88be 036f 63bf
00000130: 83c3 4d3e 2ede 6d3e f2ec bf3d 39b4 ba3d
00000140: c3ae 693e a1cc 853c 2b1a aebd 3d1d dbbc
00000150: 8c5e 96be 4000 363e fb2f 2cbf 7836 87be
00000160: 70a4 81be 2e5f 0ebf c4be 9cbe 1b3a 04bf
00000170: b217 6fbe 6e81 80be dfe6 af3c 8366 4dbe
00000180: 43ea 4cbe cc32 f6bc c18e 6aba e41e 543e
00000190: e2bc 893e fbf7 b23d ff6a a23d b876 66be
000001a0: d8a2 b6be 223c 19bb 8b4f c1bd 80c0 e63d
000001b0: 6736 7f3e f180 db3d bcef 0c3e 0bff 8bbe
000001c0: ddf1 cbbc d99b 98bd 3fbf 0cbe 94f6 083d
000001d0: bb47 203e 1a38 333d ca7b 883e f67d 2bbe
000001e0: eb8e f3bd e913 51bd 2665 39be 7c05 613e
000001f0: 55a2 c43d 8c27 693e e814 433e 34da 9d3e
00000200: b292 2b3d 38b4 003e 9a6b ba3d 7391 963d
00000210: 03c7 a03d 8ffc 213b 62b1 183e 4d51 cbbc
00000220: a5dc 653d 9127 333c 8b9c 923c c563 683c
00000230: 682e 63be 857d 81bd 876a cabe 30bf 3cbc
00000240: ecb7 283e a5ea 893d ae29 9d3d 9e67 903d
00000250: e7d9 813d 74b5 693d 6704 033e 9aad 933d
00000260: 03ea 303e 8ad9 9c3d 92bd e13d f0d5 df3d
00000270: 8501 54be d9d5 503d ad0a efbe e868 4d3d
00000280: f8db 143e 1432 713e 4e16 fa3d 201f ef3d
00000290: 72e9 ed39 4261 3ebe b15a 56be dfc7 b3bf
000002a0: 5ce8 2c3e 082f 723d 0071 6bbe 4f32 213f
000002b0: 7d44 d0be 9bd0 ec3e 00cd 2fbe 2389 b53e
000002c0: 66f8 69be 7191 a33e 687b 83be 844a 823e
000002d0: 3f45 763e f70b 233e 341b fc3d 8eb2 373e
000002e0: 553d bb3e 23b9 e63d 2349 9fbd a818 ac3e
000002f0: 1f3e ef3d 2aa9 113e 5dcc 103d e2c5 ba3e
00000300: dc50 813e 3219 963e 22e7 91be 0d07 22be
00000310: ea02 91bc 2663 2bbe 5b16 b83e 54f4 ea3e
00000320: 07b5 bc3e 5ac9 673d a196 2dbe e200 bbbe
00000330: 8807 86be 71fb 81bd c030 443e f90a 3f3e
00000340: 39af cf3d 5f56 403f 4069 96bc b88c 443e
00000350: d518 cc3c 93b9 723e 420c f9bd 21a7 353e
00000360: 8d0f 84bb a196 b33d 3d09 adbd 5f7b b73d
00000370: 9d2c 533e c73b 803e 5455 973d 61ff 4a3d
00000380: fe65 4e3c 7e2d d63d 16a0 3bbd b522 093e
00000390: 0723 c93d 2ac6 c23e 63fe ad3d 5abc eebd
000003a0: 8418 353d 4781 69bf 4a39 88be 37f4 c1bf
000003b0: 0e69 26bd b4dc 7b3e 6673 e23d 536c 5cbe
000003c0: e98f 303d 4353 ddbe eee8 6abe 7f2b a0be
000003d0: b251 c03c 74af 933e d206 acbb a20d 7dbc
000003e0: 8adc 813c 2234 d03d fb41 8ebd a4e8 6c3e
000003f0: 7f8c 10be 8013 723e 843f 843f 71c2 213f
-0.022964299 -0.2584036 0.06686222 -0.2935353 0.36885723 -0.30608118 0.62985903 -0.28972706
0.5867515 -0.30545714 -0.13520318 0.055407494 -0.048555013 0.12369181 -0.34125674 0.13166383
-0.45655876 0.2015796 -0.14940612 -0.039765902 -0.0050559505 -0.05433301 -0.10972143 0.26174676
-0.024882432 0.28654397 -0.034442287 -0.18688244 0.114493705 -0.029512193 -0.11847002 0.43980536
-0.19438747 0.6332324 0.14179415 0.25541633 0.2230101 0.43967357 -0.11085233 0.5598748
-0.27615702 1.0403167 -0.28825265 -0.15498872 -0.061511863 0.3211556 0.12709436 0.07800526
0.08707858 -0.0028656647 -0.11676199 -0.068784155 0.2598249 0.1686887 -0.08123293 0.21041186
0.05733218 0.27809098 -0.10755479 0.20382829 0.053582374 0.14108789 0.08134871 -0.1303032
-0.29915065 -0.3076749 -0.44422165 -0.40343457 -0.007977459 0.15306316 0.034804888 -0.19948718
0.26669422 -0.95495653 -0.2669332 -0.88841265 0.20094113 0.23229286 0.093713656 0.09116406
0.22820573 0.016332926 -0.08501085 -0.02674734 -0.2936901 0.17773533 -0.6726071 -0.26408744
-0.25320768 -0.5561398 -0.30614293 -0.5165116 -0.23348883 -0.25098747 0.021472393 -0.20058636
-0.20011239 -0.030053519 -0.00089476636 0.20714909 0.2690192 0.08738705 0.07930564 -0.22506225
-0.35671115 -0.002338179 -0.09439 0.11267185 0.24923097 0.10717953 0.13763326 -0.2734302
-0.024895603 -0.074516006 -0.1374483 0.03343828 0.15652363 0.043754674 0.26656944 -0.16747269
-0.11892494 -0.05104438 -0.18104991 0.21974748 0.09601275 0.22768992 0.19050944 0.30830538
0.041887946 0.12568748 0.091025546 0.07351961 0.078504585 0.0024717187 0.14911416 -0.02481904
0.056118626 0.010934726 0.017896911 0.014183943 -0.22185671 -0.06322769 -0.395344 -0.011520192
0.1647641 0.06734208 0.076739654 0.070510134 0.0634039 0.057057813 0.12794648 0.07210846
0.17276768 0.0765868 0.11022486 0.10929477 -0.20703705 0.05098519 -0.46687832 0.050148875
0.14537036 0.2355426 0.122112855 0.116758585 0.00045378093 -0.18591788 -0.20933034 -1.4045371
0.16885513 0.059126884 -0.22992325 0.6296739 -0.40677252 0.46252903 -0.17168045 0.3545619
-0.22848663 0.319469 -0.2568009 0.25447476 0.24049853 0.15922533 0.12309876 0.17939207
0.3657023 0.11265781 -0.077776216 0.3361256 0.116817705 0.14224687 0.035351146 0.36479098
0.25257003 0.29316097 -0.28496653 -0.15823002 -0.017701585 -0.16737041 0.35954556 0.45889533
0.36856863 0.05658851 -0.16951992 -0.3652411 -0.2617762 -0.06346787 0.19159222 0.1865653
0.10140843 0.7513179 -0.018360734 0.19194305 0.024914185 0.23703603 -0.12160541 0.17739536
-0.004030174 0.087689646 -0.08449028 0.08959078 0.20622487 0.25045606 0.07389322 0.049559955
0.012597559 0.10457896 -0.045806967 0.13392146 0.09821134 0.38041812 0.08495786 -0.11657019
0.044212833 -0.91212887 -0.26606208 -1.5152653 -0.04062753 0.2459591 0.11057167 -0.21525697
0.043105993 -0.43227586 -0.22940418 -0.31283185 0.023476455 0.28844798 -0.0052498365 -0.015445145
0.015852232 0.101661935 -0.069461785 0.2313562 -0.14116095 0.23640251 1.0331883 0.6318732

sequential/dense_1/MatMul f4 [10, 20]
00000000: feb9 a5bf 4add 13be f60f 06bf 79fb 493f
00000010: 40ae 45bd 651d adbd 6689 f6bd 1e5a 2abf
00000020: 1019 5f3e 6126 423d 97c7 7dbd 7aff f43d
00000030: 2572 673f 85a8 c2bd 1452 75be 970a a93f
00000040: 4d3c 15be b5a4 9fbe 77eb 463e 2946 92bd
00000050: fd9e cabe dac3 803f d8a6 413e ace1 e73d
00000060: 0356 2fbe 82df 423f 2e01 df3e ad51 ae3f
00000070: 11d1 0d3c f28e 803e e2ef fc3d 0fe2 d8bd
00000080: 79ff a5be 61b2 ac3e fe15 babd 1904 b7bd
00000090: fb89 28bb 76b2 a2bd b56c c33d 482c c5be
000000a0: 985e 2b3f fec9 c8bd bb1a 663e a4c8 283f
000000b0: 223a 39bc d203 47bd d17c e8bd af9b 683c
000000c0: b2e9 f1bc 1d91 9dbd 3dad 003f 1ca1 1dbd
000000d0: daff 1abe 712e e83d a1f0 6a3f b1d4 543e
000000e0: c020 2f3f ce21 df3e 9f07 903e dbbc ddbc
000000f0: 0839 5ebe cdc5 8a3e 3b2f 22bd ae0a 76bf
00000100: 427b 4abf 0866 f43e 022a 503e bbdd 23be
00000110: 37c3 60bf 0dca 51bf 5d5d a8be af5e d2bc
00000120: 60ad 573e 2c61 61be 0618 fdbd 6c87 a63c
00000130: a284 793e 46a7 f6bd 3e2c 503e 3e40 55bf
00000140: c9a6 98bd c202 773e 6eda 243f f37f 823f
00000150: 59ae a53e 698a e83d ed65 0e3f 7949 48be
00000160: 86d9 5d3f a231 1d3f 1081 2b3f 509b c93d
00000170: 2d32 56bd 13e9 853f 827c af3e 6b02 08bd
00000180: 7b22 023f 2675 3dbe d3fe a83d b4b6 e53e
00000190: f9fc 323d 51d8 0b3e 2bbe 8d3f c28f fdbe
000001a0: 49b1 54bf c9af b03d 4eb8 c2be dc96 1abe
000001b0: e524 a7be 1f8d c8bd 8a62 393f cb75 0fbf
000001c0: 9845 e1be d5d9 64bb 4e62 723e b300 563e
000001d0: a9e0 ca3e d8cd f23e bb2e 793f a0da a1be
000001e0: 8ecf e53e 6569 343d 78b9 a23e ec1e 0c3e
000001f0: 58cc aa3e bf11 033d 32d5 8e3e 4650 ce3d
00000200: bf8d 763e 1926 853e a478 b53e aef6 983f
00000210: 6487 213f 9684 103e 3bb3 623f c168 f73e
00000220: ae5d 1c3f 90e5 453f 8e07 a23e 62b8 2b3f
00000230: c99f 573e 1798 283f f9b4 87be 9ed4 373f
00000240: 105c 92be 081b 033f 741e 8dbf 36e1 853f
00000250: 206d 723d cd8c 523e fb22 cabd 0e09 01be
00000260: 65db 133f 1e28 cb3e 3cab 2abe bd4e c13f
00000270: ac95 d3bd 598f 873d e286 e23e e25f c0bd
00000280: 36ea 99bd 0a82 9b3e 6c19 edbc 12b3 c93e
00000290: 88a0 3fbd 6b99 253e f00b e03e 95ed 983f
000002a0: 4abe 2a3e 362c 773f 4e0b 3bbe c58d 01bf
000002b0: 0699 c23a 6136 c6bc 4980 213f 3e64 12be
000002c0: 6970 d23d 2be6 09bf dc15 0fbe 3aac d8bd
000002d0: 34f6 5dbe 6bfe 123e 21ec 00bf 6e7e 20be
000002e0: 6906 b83e 47f5 6abf 8569 d33e 05a3 0bbe
000002f0: 94ce f13e 5f58 033f 0280 7bbe b510 1b3f
00000300: 26a0 3f3e 4832 b1be 2f98 8fbe 7be6 c8bd
00000310: d5bc 4b3e 4d6d 2ebe b93c afbd 619c e13e
-1.2947385 -0.14439884 -0.52368104 0.7889934 -0.04826188 -0.08452872 -0.120379254 -0.6654376
0.21786904 0.047399882 -0.06195792 0.11962791 0.90408546 -0.09504799 -0.23957092 1.3206357
-0.14573784 -0.3118035 0.1942576 -0.07142288 -0.39574423 1.0059769 0.18911302 0.1132234
-0.17122655 0.76122296 0.43555588 1.3618675 0.008655802 0.2510906 0.123504415 -0.10589992
-0.32421473 0.33729842 -0.09086226 -0.089363284 -0.0025717008 -0.07944195 0.095422186 -0.38510346
0.66941214 -0.09804152 0.22471134 0.65931153 -0.011305364 -0.048587628 -0.11351932 0.014197274
-0.02953038 -0.07693694 0.5026434 -0.038483724 -0.15136662 0.11336983 0.9177342 0.2078426
0.6840935 0.43580478 0.28130814 -0.027067592 -0.21701443 0.27104035 -0.039595824 -0.96110046
-0.79094326 0.47734094 0.20328525 -0.16002552 -0.87797874 -0.8194893 -0.3288373 -0.025679914
0.21062231 -0.22009724 -0.12358098 0.020328246 0.24367002 -0.120436236 0.20329377 -0.8330115
-0.07453687 0.24122146 0.643958 1.0195297 0.3235958 0.11354525 0.55624276 -0.19559278
0.8666004 0.6140386 0.6699381 0.09844077 -0.052293945 1.0461754 0.3427468 -0.03320543
0.50833863 -0.1850172 0.08251729 0.44865954 0.043698285 0.13656737 1.107366 -0.4952374
-0.83083016 0.08627278 -0.38031238 -0.15096611 -0.32645336 -0.09792542 0.72415984 -0.5603911
-0.43998408 -0.0034919877 0.23670313 0.20898704 0.39624527 0.4742267 0.9733693 -0.3161211
0.44884914 0.044045825 0.31782126 0.13683671 0.33359027 0.031999346 0.2789703 0.10073905
0.2407751 0.2600563 0.35443604 1.1950281 0.63097215 0.14113078 0.88554734 0.48322108
0.61080444 0.7730341 0.3164639 0.6707822 0.21057047 0.6585707 -0.2650526 0.71808803
-0.28585863 0.5121312 -1.1024919 1.0459354 0.0591861 0.20561524 -0.09869953 -0.1260111
0.57756644 0.39679044 -0.16666883 1.5102154 -0.10331282 0.06619138 0.44243532 -0.09393288
-0.07515375 0.3037265 -0.028942786 0.39394432 -0.046783954 0.16171806 0.43759108 1.1947504
0.16674152 0.96551836 -0.18266031 -0.5060695 0.001484663 -0.024195852 0.6308637 -0.14296052
0.10275347 -0.53866833 -0.13973182 -0.105797246 -0.2167595 0.14354865 -0.50360304 -0.15673229
0.3594239 -0.91780514 0.41291443 -0.13636406 0.4722792 0.5130672 -0.2456055 0.6057237
0.18713436 -0.34608674 -0.28045794 -0.09809586 0.19896252 -0.17033882 -0.08556504 0.4406462

sequential/dense_2/MatMul f4 [8, 10]
00000000: 91f6 38be ca26 b23e 28e3 363e 1d64 85bf
00000010: 0033 8fbc 219f f8be a110 263f ea57 543f
00000020: 85aa dd3e 8d2b 71be 8033 2dbf aa49 693d
00000030: 0ba5 00be 4294 8bbe 22be 503f e812 f93e
00000040: 234c 633e 7bb8 bfbe 0b93 79be 68ea 8cbe
00000050: 8e68 1f3f c89a 34bf 9a76 143f 0df4 0fbf
00000060: 5caa 353f fe3b 03bf b1c7 043e 488b dc3d
00000070: 791a 3fbf 1696 21bf 3f07 98bf 14a3 e2bf
00000080: 5cd8 443f 8d43 7a3c 720e b6be 2da0 553f
00000090: 3f4b 94be 516e a2bf 29da ae3e 7255 19bf
000000a0: 9533 d43e 60be 86bf 0801 a4bf 05ce 94bf
000000b0: 3561 22be 856d b3bf 7209 df3b f6dd 95bf
000000c0: 9608 2b3f 5c93 6b3f b222 433f 6e41 94be
000000d0: 7940 90bf 8efd 693f b706 f2bf 736f d53d
000000e0: 8a9d bfbf d8f1 1a3f ecca edbe 982a 15be
000000f0: 9b7b 95be 6283 183f 3a6f 14bd 6ef8 28bf
00000100: 1ea2 203f c10e bbbf 482f 8ebf 1049 3c3e
00000110: 8f67 633f 30fd 89be 68cc 9dbf 5aa8 3a3f
00000120: 2433 b43e cbdc 383f 29a8 053e bca0 efbe
00000130: fbb7 8fbd d243 10bf 1222 36bf 68c0 183f
-0.18062808 0.3479522 0.1786009 -1.0421177 -0.017480373 -0.48558906 0.64869124 0.82946646
0.4329416 -0.2355177 -0.6765671 0.056955017 -0.12562959 -0.2726155 0.8154012 0.48647237
0.22197013 -0.37445435 -0.24372499 -0.27522588 0.6226891 -0.7054868 0.5799347 -0.56231767
0.7096307 -0.51263416 0.12966801 0.10768753 -0.7464977 -0.6311964 -1.1877211 -1.7706017
0.7689264 0.015274894 -0.35557896 0.83447534 -0.28963658 -1.2689916 0.34150818 -0.59896004
0.41445604 -1.0526848 -1.2812815 -1.1625372 -0.15857394 -1.4017798 0.006806546 -1.1708362
0.66809976 0.9202173 0.76224816 -0.2895617 -1.1269675 0.9140252 -1.8908299 0.10421648
-1.4969952 0.60525274 -0.4644388 -0.1456703 -0.29195866 0.59575474 -0.036238886 -0.66004074
0.6274737 -1.4613878 -1.1108179 0.18387246 0.8882989 -0.2695098 -1.2328005 0.72913134
0.35195267 0.72211903 0.1305243 -0.46802318 -0.07017513 -0.56353486 -0.7114574 0.5966859
